code/pre_trained_gnn/MUTAG.GraphCL.GCN.128hidden_dim.pth (torch, 5328 bytes, 4 tensors)

conv_layers.0.bias f4 [4]
000000 c9 43 1c 3d 39 e2 d5 bb 8f d3 a0 3e f2 01 24 3e
       0.038150582 -0.006527212 0.31411406 0.16016367

conv_layers.0.lin.weight f4 [4, 7]
000000 77 e2 f2 bf 4a d2 82 3f 96 f1 29 bd 43 38 31 bd
       -1.8975362 1.0220425 -0.04149016 -0.043266546
000010 ab 2e 1d bd 7b c1 42 be 3b 06 8b be 08 1b e8 3d
       -0.038374584 -0.1901912 -0.2715319 0.11333281
000020 8f b6 9d 3f e7 ff 32 bc 8d 03 40 40 32 dd 01 3f
       1.2321337 -0.01092527 3.0002167 0.5072814
000030 8d be 94 be 70 fc ab be c4 e0 dc be 5d bd fe 3e
       -0.2905163 -0.33591032 -0.43140233 0.49753848
000040 66 a7 12 3f a5 93 f7 3d 61 86 92 be e1 41 af be
       0.5728668 0.12088708 -0.28618148 -0.3422995
000050 19 7c a0 3d 4f 7c 95 3e b1 74 02 3e 3c 52 a3 bf
       0.0783617 0.29196402 0.12739827 -1.2759471
000060 e3 cd c1 be 9d 43 cd 3f 41 c6 09 40 50 5f 71 bf
       -0.37852392 1.6036259 2.1527255 -0.9428606

conv_layers.1.bias f4 [128]
000000 f8 d2 7f 3d 81 3c 07 3e 72 ec 48 be 7f c7 22 3e
       0.062457055 0.13206674 -0.19621447 0.15896414
000010 1b 25 56 3d 3d 08 44 3d 26 64 42 be 91 3c 20 bd
       0.05228148 0.04785942 -0.18983516 -0.03912026
000020 4a 89 17 3e 3c a6 31 3e 07 ea 10 bd 70 06 ff 3d
       0.14798465 0.1734857 -0.035379436 0.124524
000030 cd d6 a0 3d b2 25 2c 3e cc 8b 03 be d6 09 1b 3e
       0.0785347 0.16811255 -0.12846297 0.15140471
000040 63 1f 14 bd 42 a0 99 3a 24 f2 df bd f5 31 bc 3d
       -0.036162745 0.0011720734 -0.109348565 0.09189216
000050 5d 18 52 3b 06 67 40 bd f5 4c 70 bd c5 fc b0 3d
       0.0032057979 -0.04697325 -0.058667142 0.08641962
000060 9d 78 c2 3d 8b 55 0d 3e c5 e4 12 bc 27 9b e0 3d
       0.094956614 0.13802163 -0.008965676 0.10967093
000070 58 7f 3f 3e 98 a2 fc bd b3 22 51 3e af af b9 bd
       0.18700922 -0.123357 0.20423393 -0.09066712
000080 c1 98 b0 bd 02 d0 8b bd 66 74 96 bd 5d 25 b0 bd
       -0.086228855 -0.06826784 -0.0734642 -0.086008765
000090 49 ea 91 3d 74 a7 40 3d ec b9 f7 bd e4 d2 ba 3d
       0.071247645 0.047034696 -0.12096009 0.091222554
0000a0 9d 5c 0e 3e 2e 56 d7 bd ac e7 04 3e b1 60 7b be
       0.13902517 -0.10514484 0.12979001 -0.24548604
0000b0 7e 46 3b bd 76 1c 27 3e 6f e8 c1 3d a8 b2 ee 3d
       -0.045721523 0.1631945 0.09468161 0.1165517
0000c0 f8 1b a4 3c 17 50 2c 3d 65 fd e8 3a 7a da 9c 3d
       0.020032868 0.042068567 0.0017775713 0.076588586
0000d0 6f b0 92 bd 21 11 1b 3d a9 d0 69 be c5 72 56 3e
       -0.07162558 0.037858132 -0.22833504 0.20942219
0000e0 9a 8c aa bd 41 69 b1 bd 50 0e 98 3d 3c 1c 5f 3e
       -0.08327599 -0.08662654 0.07424605 0.21788114
0000f0 0a 92 1e 3e ae a9 4f bc 6c 06 8f bc cd 8a 67 3e
       0.15485397 -0.012674732 -0.017459117 0.22611542
000100 a3 eb 99 3d 40 95 5c be c7 96 a7 3d 89 af 80 3b
       0.07515647 -0.2154131 0.08183055 0.0039271754
000110 a8 e9 16 3e fa 3a bc 3d b8 4c 68 bd 20 7f 16 3e
       0.1473757 0.091909364 -0.05671379 0.14696932
000120 90 a4 06 3d f5 6f 14 3e ff a6 82 3e ec af fd 3d
       0.032871783 0.14495833 0.25518033 0.1238707
000130 f9 4a 00 be fd f2 08 3d 33 d2 2e be a9 f5 81 bd
       -0.125286 0.033434857 -0.17072372 -0.06345684
000140 72 34 27 3e a4 75 36 3e b7 79 41 3d 88 67 52 3e
       0.163286 0.17818314 0.047235217 0.20547307
000150 a8 41 72 be c0 3b 55 be c9 57 62 be 4a 0e 16 3e
       -0.23657858 -0.20823574 -0.221038 0.14653888
000160 81 f9 20 3e 11 10 8f 3c 4e 9a a5 bd 58 95 44 be
       0.15720178 0.017463716 -0.08086072 -0.19197595
000170 8c 1a 01 3e dc dd 8b 3d c0 a7 ae 3c 11 da cd bc
       0.12607783 0.06829426 0.021320224 -0.025128396
000180 f9 77 64 be 64 91 8a bc df 41 93 3d f3 f1 5b bd
       -0.22311391 -0.01691503 0.07190298 -0.053697538
000190 48 69 41 be 04 f4 21 be dc 83 fd bd 00 95 33 3e
       -0.18887818 -0.15815741 -0.12378666 0.17537308
0001a0 e1 1f 4e bd 36 fa 21 be 75 8d 80 bd b0 d6 d5 bd
       -0.05032337 -0.15818104 -0.06276981 -0.10441339
0001b0 91 96 27 3d 26 f2 78 3d c7 e4 c4 bd f4 67 ab bd
       0.040915076 0.060777806 -0.09613948 -0.08369437
0001c0 64 39 eb bd 4b 06 5b bd 1e f8 1c be 46 c8 86 3e
       -0.11485556 -0.0534728 -0.15329024 0.26324672
0001d0 b3 18 54 3e 96 35 e6 3c 69 10 85 3d 8b c2 ef 3d
       0.20712547 0.028101724 0.064972706 0.11707028
0001e0 7e de 11 be c4 0b 9d bc 1d 9a 99 3d 4a 8a 26 bc
       -0.1424503 -0.01917065 0.07500098 -0.010164807
0001f0 cd 16 84 bd be 7b 6c be 44 f3 4b be eb 2c ec bd
       -0.064496614 -0.23094079 -0.19917017 -0.11532005

conv_layers.1.lin.weight f4 [128, 4]
000000 e7 ec ad bf 4a 60 7a 3e 32 8a cf 3d cb a6 8c be
       -1.3587922 0.24450794 0.101337805 -0.27471003
000010 9a e9 2d 3f ba 86 2e bf e7 22 48 bd 69 d8 25 3e
       0.6793457 -0.68174326 -0.04886141 0.16195835
000020 5e c8 f4 be 4e a0 73 3e 68 b1 d0 bc 4a 45 02 3f
       -0.47809118 0.2379162 -0.025475219 0.50886977
000030 1c 65 ad be 5e b0 23 be e3 70 d6 3d 64 fd cd be
       -0.33866203 -0.15985247 0.1047075 -0.40232384
000040 5a d4 99 bd 22 15 e9 bd 63 ca c0 3e c7 89 17 bf
       -0.07511206 -0.11380984 0.3765441 -0.59194607
000050 f2 49 17 3e bd 63 15 be d3 88 ca 3e bc 31 34 bf
       0.14774302 -0.14588828 0.39557514 -0.7038839
000060 84 62 67 be 8d 8f c9 3e 7e 9f 33 be 2c c8 06 3f
       -0.22596174 0.39367333 -0.1754131 0.5264919
000070 9a 3e 28 bf 81 bb 76 3e e8 76 85 3d 37 00 0c bd
       -0.6572052 0.24094965 0.0651682 -0.034179892
000080 a1 2a 6f be 4e e5 c5 be f9 6c 6f be a3 b1 98 3d
       -0.23356105 -0.38651508 -0.23381414 0.074557565
000090 dc 6a 58 3d b7 8e a1 be 09 25 0c 3e fe cb cc be
       0.052836284 -0.31554195 0.13686003 -0.39999384
0000a0 fc 71 31 bd 74 18 21 bd a8 e3 d0 3d 2a 6d 09 3d
       -0.043321595 -0.03932996 0.10199672 0.033551373
0000b0 58 fd 35 3e fc 10 a9 be 78 4a b1 3e 86 2e e6 be
       0.17772424 -0.3302077 0.34627128 -0.4495737
0000c0 15 4f 34 be 4e 04 b6 be 3b d8 cf be 7b 44 01 3f
       -0.17608292 -0.3555016 -0.40594658 0.5049512
0000d0 05 d0 33 bf f2 0d e8 bd 3f 34 52 be 67 5d 14 be
       -0.7023929 -0.11330785 -0.20527743 -0.14488755
0000e0 07 65 99 bf 97 a1 3d 3f 23 a1 b0 bb ea b2 f1 3c
       -1.1983956 0.7407469 -0.0053903027 0.029504258
0000f0 40 04 7e 3e 47 08 79 be 0c 54 51 be ea 46 10 be
       0.24806309 -0.24319564 -0.20442218 -0.14089552
000100 de d9 74 3e 24 dc f3 bd 64 25 f1 3c 6d 2e 11 3e
       0.23911235 -0.11907223 0.029436775 0.14177866
000110 3b 9b 8c bf cb d2 8f 3e ea ed 92 3e 5d 06 9a be
       -1.0984873 0.2809051 0.2869714 -0.3008298
000120 d3 2b 93 bf 35 6d 23 3f 4f 80 28 be 56 ba 06 3e
       -1.1497749 0.6383851 -0.16455196 0.13157019
000130 8b bf a8 3e fb 3e ee be b5 ab 04 bf f3 7d cd 3e
       0.32958636 -0.46532425 -0.51824504 0.40135154
000140 58 14 11 3f 61 19 3e be 5f 49 43 bd c0 e6 b9 3d
       0.5667167 -0.18564369 -0.047677394 0.09077215
000150 94 a6 a3 bf 1c 52 97 3e 87 cc 1a 3e 5f 44 3e 3b
       -1.2785211 0.29554832 0.15117083 0.0029032452
000160 ce d8 48 be 1f 55 d1 3d f9 55 b8 3e c7 51 1f bf
       -0.19613954 0.10221314 0.36003092 -0.6223416
000170 ff ef a2 bf d9 2a 2e 3e 9f 73 7b bd dd 17 2e be
       -1.2729491 0.17008533 -0.06138956 -0.1700129
000180 2a bf f4 3e c2 be 2c be 39 90 1e be 1c b2 fa bd
       0.47802097 -0.16869643 -0.15484704 -0.12241003
000190 de 2c b2 bd 1d 86 14 bf f1 8e 12 bf dd dd c9 3e
       -0.08699964 -0.5801714 -0.5724936 0.3942708
0001a0 a8 e8 fd bd 34 2e 85 bd 5b e6 df be b5 fe 37 3f
       -0.12397891 -0.06502953 -0.43730435 0.7187303
0001b0 ca fe b5 3d 4c e6 91 3d 48 c7 33 be 9b e2 83 be
       0.08886488 0.07124004 -0.17556489 -0.25758824
0001c0 ba 59 8e be c6 d7 29 be c5 b1 23 3e cb 52 07 bf
       -0.2780283 -0.16586217 0.15985782 -0.5286071
0001d0 fd 07 46 bf bd 9b e7 3e 16 ab 6c bd 83 0b 34 3e
       -0.7735594 0.45236006 -0.057780348 0.17582516
0001e0 40 f6 b0 bd 73 c2 b9 bd f2 00 d6 bd e9 e1 dc be
       -0.086407185 -0.09070291 -0.10449399 -0.43141106
0001f0 72 8b d0 be 03 fd 54 3e 80 d3 66 3e 7d 72 94 bc
       -0.40731388 0.20799641 0.22541618 -0.018120999
000200 56 51 ef be 96 d0 6c 3e 3a 11 6e 3d e1 21 a7 3d
       -0.46741742 0.23126444 0.058121897 0.08160759
000210 c1 b0 ca 3d 76 33 a5 3d c1 86 b7 be 3c 70 02 3f
       0.098969944 0.08066456 -0.35844997 0.50952506
000220 20 bd 93 bf 5f f8 09 3f 4d 85 c6 3d 2d 06 21 be
       -1.1542091 0.5389461 0.09693394 -0.15725012
000230 51 b7 03 3f 39 e0 7f bd 8b 26 04 be 54 16 ac 3e
       0.51451594 -0.062469695 -0.12905328 0.33610785
000240 b9 61 58 3f d9 24 a0 be d8 8f 23 be ff e1 20 3c
       0.8452411 -0.31278113 -0.15972841 0.009819507
000250 77 fb fa bc 9d f2 17 bf f4 fc 22 bf 03 39 ee 3e
       -0.030637486 -0.59354573 -0.63667226 0.4652787
000260 2f 13 2f bb b8 ff 58 3d 1a 63 dd bd 53 64 d1 3e
       -0.0026714315 0.052978247 -0.10809918 0.40896854
000270 9f 8f 09 3f b2 2f ab be 3c 87 b6 3e 7e d9 0c bf
       0.53734773 -0.33434826 0.3565005 -0.55019367
000280 97 81 52 3f da e9 28 bf ba c2 2c be bb ff b1 3d
       0.8222899 -0.6598183 -0.16871157 0.08691355
000290 88 35 90 bf 44 27 53 3f 8b 1a 88 3e 50 21 0b be
       -1.1266336 0.8248179 0.2658275 -0.13586926
0002a0 c2 0d a6 3d 7e 3d 0e be f0 dd f6 3d 3c 09 c8 be
       0.08108093 -0.13890645 0.1205405 -0.39069545
0002b0 01 63 ea be 7d 01 c8 3e 2e b0 a7 3d 87 cf d5 3e
       -0.4577866 0.39063635 0.081879005 0.41759893
0002c0 24 60 b3 be 94 19 e1 3d 4c eb b7 be 6e 84 32 3f
       -0.35034287 0.10991207 -0.35921705 0.6973332
0002d0 16 44 36 bf 23 6b 03 bd f9 42 3c 3e 1f 09 05 bf
       -0.7119764 -0.032084595 0.18384923 -0.5196704
0002e0 c7 64 42 3f b5 11 e9 be 49 23 b6 be 75 3c 35 3e
       0.75935024 -0.45521322 -0.35573795 0.17698844
0002f0 6c af 22 be d2 72 a8 3d 9e 8d d8 bd 36 cc 9a be
       -0.1588723 0.08225025 -0.10573886 -0.30233926
000300 6c 34 02 3e 49 a8 fb bd 20 d0 ca be cc 6d b2 3e
       0.1271531 -0.12287957 -0.39611912 0.34849393
000310 f9 ca 8e 3f da 2f bf be 52 c7 67 3d c1 a5 93 bb
       1.1155692 -0.37341195 0.05658657 -0.0045058434
000320 d6 f5 c8 be 56 ee 66 3e d1 79 0c 3f 57 b7 14 bf
       -0.39250058 0.22551855 0.5487338 -0.58092254
000330 8c c9 8a bd 55 b7 0f 3d b8 36 c3 be af db 46 3f
       -0.06776723 0.03508695 -0.38127685 0.7767896
000340 a1 73 25 3e 05 2b 4a 3e b4 5d cc be 63 f0 35 3f
       0.1615739 0.19742973 -0.3991524 0.71069926
000350 1e 37 84 3e 5a 11 05 be 1f 3c 44 be ef 96 91 3d
       0.258233 -0.129949 -0.1916356 0.071088664
000360 f6 ce 39 3f 08 03 7d 3e 4f 37 0a bd 58 c6 e1 3e
       0.7258142 0.24708188 -0.033744153 0.44096637
000370 72 00 54 be f6 6d ce bd 9f c4 15 be 0e 6c ca be
       -0.20703295 -0.10079567 -0.14625786 -0.39535564
000380 87 51 39 3f f3 16 8b bd 13 4c 0e be b0 64 ad 3e
       0.72390026 -0.067914866 -0.13896208 0.3386588
000390 0e da 8f be 72 ef 23 3e ad 05 b7 bb aa 90 2b 3e
       -0.2809605 0.1600931 -0.0055853934 0.16754404
0003a0 31 e2 5f 3f fd 8d c9 be fc ce a9 be 91 37 4c 3e
       0.87454516 -0.3936614 -0.3316573 0.19943072
0003b0 d1 8b d6 3e 3b 27 10 bf bc 03 16 be f8 7d 3c be
       0.41903546 -0.5630986 -0.14649862 -0.18407428
0003c0 a1 9d b4 be c8 67 97 bd 35 98 5c 3e 00 1a 0d bf
       -0.3527651 -0.073928416 0.21542437 -0.551178
0003d0 c9 c9 fd 3d c3 31 66 bd 09 b4 7e 3d 4e 80 20 3d
       0.12392003 -0.0561998 0.062183414 0.03918486
0003e0 73 9f 89 3e 5b d8 10 be e4 36 bc be ec 83 da 3e
       0.26879463 -0.14145033 -0.36760628 0.42678773
0003f0 ed 32 80 be d2 51 bf be 4b c5 9c bc 60 34 b7 be
       -0.25038853 -0.3736711 -0.019137045 -0.35782146
