code/trained_projector/best_projector_MUTAG_GraphCL_GCN.pt (torch, 398126 bytes, 2 tensors)

1.weight f4 [768, 128]
00000000: d1b4 7b3a a38a 4a3b fdef f4b9 28f3 07bb
00000010: 83bf 80bb e995 a4bb bf0d f3ba 6138 133a
00000020: 3a5a 703a 77c8 a2ba 1ee4 02bb 5a92 0f3b
00000030: 11b9 db3a 3366 dc39 4af5 bcbb 0dcc a83a
00000040: 0214 f239 cc5e b6ba 19cf a1bb 566d 7eba
00000050: 2723 99ba e6fe d73a 59f8 46bb e1aa 8e3a
00000060: b090 cdba 5726 18bb 0a2d 933b c0be b33a
00000070: 5cff 8dba fbed 3cba 0d6d 8538 8f2d 4eba
00000080: a904 c0b9 c8d3 8d3a 91d6 6fbb c471 423a
00000090: 0e61 3bb9 f7ef abbb 2792 e43a 4806 38bb
000000a0: 98cf 703b 2f2c 883b 242f dbba 9d43 02bb
000000b0: 1ed5 a13b 6625 dfba daf2 173b 8ac2 c23a
000000c0: aabe 66b8 32d9 c1b9 25fc 77b8 ed02 223b
000000d0: d4b9 a13b 468d 073a cb45 46b9 f9c7 3138
000000e0: f8ea be3a 1939 a339 9aa6 0b3b d765 5f3b
000000f0: 0daf 933a a0f5 1c39 f423 7238 4710 253b
00000100: 7118 ec39 7780 96bb 4e30 a1bb 4573 0ebb
00000110: 4bbe 1fbb 76a3 cabb 4145 1e39 d257 723a
00000120: f57b ef3a 6e78 7bba 8406 4e3b d19a 1d3a
00000130: 92e6 3dbb 5bd7 a1b9 e88a 73bb 68d9 4cbb
00000140: 93b6 ae3a f878 86b9 f6db 83ba 05fa 533b
00000150: b1f7 df39 c0de 1638 5c87 1fbb 116a 983b
00000160: ae91 193b a720 993b a17e 8a3a 19e1 7ebb
00000170: af1f 6e3b 1e51 7ebb 6eed 353b 2628 44ba
00000180: 1c4a 7bbb be5c f6ba 1b23 073b cee1 49bb
00000190: d233 34bb 34d4 83ba d94d 2abb a3f4 533b
000001a0: bda7 2ebb 9a6a 30bb c034 6f39 c367 82bb
000001b0: a41b 27ba 2804 343a 9f50 2abb bdc2 91ba
000001c0: 4cdc 2abb c882 af3a 6dd9 76bb 34ad 5e3b
000001d0: 9401 4d3b 35af 693a d2c5 8cbb f5dd 323b
000001e0: 27aa c2ba c0dc 253b e326 bcba 31f2 ebba
000001f0: d55c 3bba 9071 9cbb 8c0a 03bb 30ae a0bb
00000200: f04d 73ba ab24 c2ba fa16 edb9 d43b 2cba
00000210: 0130 b13b 2b5e b63b 806e a2bb 9184 26ba
00000220: 9b05 51bb e753 7139 b58b 903a 9b25 953b
00000230: fb63 e2bb 596c 75bb b276 553a 72f8 28bb
00000240: a330 c9b8 ddbb 143b 31b2 633a eb1b 9cbb
00000250: 0c38 81bb 7d05 8838 fb35 0e3b 391c 46bb
00000260: 2091 51bb 90ad cabb 300e e2bb 308b 333b
00000270: 288e 1d3a 1ee7 3f3a ce69 1abb 3806 2b3b
00000280: 654f d33a 37af d7bb b6b1 313b afe6 3bb9
00000290: 3cdf 1939 4f6c 07bc c78d 91ba 8d87 d13b
000002a0: e2e0 ceba e304 a1bb e835 633a ddb3 ff3a
000002b0: 80c4 c8bb 9d09 3e3a fb58 bfba 97f0 723b
000002c0: 1e65 aabb 0567 28ba 2ae8 da3b 16bc ad3a
000002d0: 3cf6 9fbb 3a95 8aba 7cc5 133b 3b5f 19bb
000002e0: eb82 b3ba 44b5 96ba 20a7 23bb 47f6 e0ba
000002f0: 5887 073b feec 1eb9 7d6d a1bb beb9 24bb
00000300: e6ae 3dbb 0afc ef3a fd57 04bc 9e34 57bb
00000310: 9f0f eb3b 53ff 5cbb da59 203c e4fd eeba
00000320: 063d 3cbc 0174 f93b a8a9 a2ba 3fcd d93b
00000330: 8729 32ba ef2d 2d3b 35d5 5bba f4bb 6f3b
00000340: 2ee3 693b 348e dfb8 06a1 01bc 5f23 253b
00000350: aa93 953a c1bf 0d3a 0101 ed38 aaf6 c3ba
00000360: 4c2d e83a 6aa6 c5bb e538 c4bb 3e76 d13a
00000370: 023a 3dbb b004 4cbb fefe 9d3b 5f0c dcba
00000380: d560 a73a 16b2 343b 2be7 0d3b f3e2 6f3b
00000390: a1e8 8139 e6f0 b9bb 8d89 b53a 3c8f 10bb
000003a0: f198 893b 97b8 4fba c752 43bb 2802 ea3a
000003b0: b4ca d73a 30c5 1cbb d921 243b dba3 b7ba
000003c0: b5da 333b 11a2 94ba b540 7dbb 11fe e9ba
000003d0: 42eb 1bbb 6020 6b39 10a8 6cba 617c a33b
000003e0: 2625 af3a 5715 b4bb 7cc3 41ba d89f 90ba
000003f0: 2b28 3a3b 245f 4b3a 0446 303b 7e2e e83a
0.0009601834 0.0030905388 -0.00046718112 -0.0020744298 -0.00392908 -0.0050227535 -0.0018543525 0.0005616006
0.0009168718 -0.0012419362 -0.0019972394 0.00219073 0.0016763528 0.00042037814 -0.0057665454 0.0012878195
0.00046172744 -0.001391375 -0.004938018 -0.00097056234 -0.001168345 0.0016479164 -0.003036043 0.0010884666
-0.0015683379 -0.0023216212 0.004491453 0.0013713464 -0.0010833549 -0.0007207093 6.3622465e-05 -0.0007865065
-0.00036624566 0.0010820562 -0.0036596397 0.0007417465 -0.00017869865 -0.005247112 0.0017438576 -0.0028079916
0.003674483 0.0041556577 -0.0016722423 -0.0019876726 0.0049387356 -0.0017024695 0.0023185522 0.0014859003
-5.5013843e-05 -0.00036973652 -5.9124217e-05 0.0024720982 0.0049354825 0.00051708927 -0.00018908751 4.2386328e-05
0.0014565876 0.00031132324 0.002130902 0.00340878 0.0011267379 0.00014968822 5.773078e-05 0.0025186704
0.00045031638 -0.004592951 -0.0049190884 -0.0021736186 -0.0024374898 -0.006184037 0.00015093853 0.00092446536
0.0018271195 -0.00095928356 0.003143699 0.0006012144 -0.0028976542 -0.00030868765 -0.0037161652 -0.0031257514
0.0013329558 -0.000256486 -0.001006006 0.0032345068 0.0004271842 3.597024e-05 -0.0024342155 0.004651316
0.002343278 0.004673082 0.0010566303 -0.0038891493 0.0036334803 -0.0038805674 0.0027759927 -0.0007482789
-0.0038343733 -0.001879595 0.002062029 -0.0030804756 -0.0027496708 -0.0010057748 -0.0025986342 0.003234186
-0.0026650273 -0.0026919008 0.00022812467 -0.0039796545 -0.0006374663 0.00068670744 -0.0025987995 -0.0011120659
-0.0026071249 0.0013390416 -0.0037666217 0.0033977749 0.0031281458 0.00089143525 -0.004296043 0.0027292941
-0.0014851735 0.002530858 -0.0014354851 -0.0018001256 -0.0007147317 -0.00477428 -0.00199953 -0.0049035773
-0.0009281328 -0.0014811953 -0.00045221281 -0.00065701944 0.005407334 0.005565425 -0.0049570203 -0.00063521514
-0.003189421 0.00023014807 0.0011027964 0.004551602 -0.0069088913 -0.0037448613 0.0008142992 -0.002578285
-9.593486e-05 0.0022694983 0.00086859154 -0.0047640703 -0.003943449 6.4860076e-05 0.0021699655 -0.0030229224
-0.003197737 -0.006185241 -0.006898664 0.0027396195 0.00060102576 0.0007320511 -0.00235616 0.0026096236
0.0016121684 -0.0065821665 0.002711398 -0.00017919646 0.00014674378 -0.008265569 -0.0011104875 0.0063943327
-0.0015783573 -0.0049139126 0.00086673955 0.001950856 -0.0061269403 0.00072493573 -0.0014598662 0.0037069672
-0.0052000424 -0.00064240425 0.006680508 0.0013254907 -0.0048816483 -0.0010573037 0.002254813 -0.002340271
-0.0013695633 -0.0011498113 -0.002497144 -0.001716324 0.0020680036 -0.0001515634 -0.004926382 -0.0025135125
-0.002894336 0.0018309366 -0.008077619 -0.0032837759 0.007173493 -0.003372152 0.009787047 -0.0018233624
-0.0114891585 0.0076127057 -0.0012410181 0.0066467817 -0.0006796349 0.0026425084 -0.00083859573 0.0036580535
0.0035688388 -0.00010659956 -0.007911926 0.0025198085 0.0011411805 0.00054072967 0.00011301228 -0.0014950831
0.0017713695 -0.006031801 -0.0059882277 0.0015980673 -0.0028873687 -0.0031130724 0.004821657 -0.0016788355
0.0012769947 0.0027571968 0.002165268 0.0036603778 0.0002477812 -0.0056744693 0.0013850197 -0.002205803
0.0041991402 -0.00079239294 -0.0029803978 0.0017853426 0.0016463608 -0.0023921244 0.002504459 -0.0014010625
0.0027443592 -0.0011339803 -0.0038643305 -0.0017852207 -0.0023791348 0.00022423407 -0.0009027729 0.0049891924
0.0013362512 -0.005495708 -0.0007391495 -0.0011033965 0.002840529 0.00077580125 0.0026897201 0.0017714051

1.bias f4 [768]
00000000: 5f89 b6bb 1dce f93b f001 dbba 8a5d 243b
00000010: b530 373b 986e 623b 72da 1abc 256b 1e3c
00000020: f1ae 1abc 5e03 68ba 3890 1e3a d691 7f3b
00000030: 1dc3 1b3c 30dd 8cbb 7a22 193c fd6c 0c3c
00000040: cfb7 16bc 0a7e 22b8 dbc4 adbb b9c2 98bb
00000050: f647 77b9 2c40 623b 8743 1a3c 8a09 073c
00000060: efbf 84b8 36cb f93a 25f5 0b3c fa3a b0bb
00000070: fddd 803b 3209 2038 862b 1a3c 2173 733b
00000080: 24c9 74bb 11a4 273b fc0c 8439 b7b9 cf3b
00000090: c5f6 1dbc fc73 1ebc da5a 1ebc 4656 a0bb
000000a0: 6ca9 b13a e0ff 073c 691b 283b 732a 7c3b
000000b0: 600f 183c cd99 11bb 5b2f 8f3a cda8 043c
000000c0: 6b69 b73a 8791 8e3b 6215 033c c94d fdbb
000000d0: f9b0 19bb a02e 6e3b 831e 5d3b 39f1 65bb
000000e0: 94f9 e73b 53de 94ba 0b60 19bc 49cb 1abc
000000f0: d343 a038 3ad9 e1ba 0d20 98bb c600 70bb
00000100: 87e7 a2bb cc7f d93b b9e3 90b9 5f0d ea3a
00000110: 3d92 be3a d9bb 8cbb b11e ad3b 5158 3f3b
00000120: a4a4 1bbb eb91 203a 6f4c 1e3c 8545 23bb
00000130: ac2d 8c3b 6313 983b 5339 a8bb 98c9 18bb
00000140: 92bb 2b3a b688 1cbb 367c f73b d09b 983b
00000150: 596a 153c f6e7 07bc 190b e13b ae25 cfbb
00000160: c963 b33a e7cb 0d3c b77f 0c3c ef66 153b
00000170: 9dc0 59bb f546 263b 23c0 1a3b 910b 173b
00000180: 93b5 823b f4bc 98bb 001f 05ba 264e 86bb
00000190: ca94 65bb d9c2 9cbb 7c86 253b aba4 173b
000001a0: 863f e2ba cad3 a53b 6996 d1ba 149a 983b
000001b0: d5d8 1bbb c80e 1ebc d7af e53a 21c0 a33a
000001c0: 09f3 1abb f55d 74bc 35bc ab3a c4c9 bfbb
000001d0: 2fec 5bbb d5b6 4f39 b0cf 19bb b877 4e3a
000001e0: 8681 033a 90e1 073c 4712 97ba 37fa 04bb
000001f0: 3444 673b 6831 a23b 8963 043c faa8 9fbb
00000200: dc52 5d3b c514 9bbb a74b fe3a af90 1ebb
00000210: 599f 14ba 5054 613b b313 2a3a b0ff 21bb
00000220: 6e54 a2bb 1600 6bbc 368b 2b3b 9dfa 64bb
00000230: dc4e 76bb b5a8 79bb d12b 4cbb 1e08 22bb
00000240: d499 9fbb 4f54 3bbb afc8 2b3b 37b7 1abc
00000250: afcc 31b9 2a67 1d3b 373c 1ebc 2b0d 7d3a
00000260: 403c 0ebc 9e08 56bb 4bf0 72bb 9d36 5abb
00000270: 4e7a 9237 bd1f 0b3c 5bd2 1c3c a3b6 973b
00000280: 1ebe cbba 8ee7 0bbc 20b1 5a3b 80c8 7d3b
00000290: 63e2 683a a5da 77bb da32 abba 07ab ce3b
000002a0: 6d34 5a3b 3704 c63b cd92 16bc bcad 193c
000002b0: 40e3 0a3c b53d 1a3b a95d 5f3b 7d9a 5dbb
000002c0: 2627 61bb 9687 7ebb 8e3c a0bb b98a 143b
000002d0: 1ea4 753b 9760 0bbc ae44 dfba 4298 0cbc
000002e0: 2366 a53b d862 d0ba 6902 c6b8 fc7b 12bc
000002f0: d319 15bb 5955 093c 0ba1 81bb a222 1b3b
00000300: 70c3 3a3a c0b5 5a3b c2f5 973b faf6 88ba
00000310: 38af cf3b ad3c 983b 5c9c fdbb 1f2c 883c
00000320: 9a39 5bbb ded7 febb 5c92 fbbb 3e99 6fbb
00000330: 8ea5 94bb f73e 433a 2296 9339 e9f9 a63a
00000340: 6f55 943b b692 15bb 13c6 783a a88a 19bb
00000350: 7d59 05bc 8272 32bc b89d c8b9 0a11 023b
00000360: 6c0b 5a3b 937e 8ebb 78d8 173c d534 adbb
00000370: 70be ad3a 16af a4ba b926 a33b 3b02 62bb
00000380: 355f 0f3c 0754 eb3a b9c7 363b 145f 1a3b
00000390: 5883 7bbb c702 66bb 07c7 97ba 46dd 65b9
000003a0: 737f 253b 0af9 9b3b db38 1c3c d1b5 1d3c
000003b0: e971 dd3a c3fb 88bb 4c81 0d3c f2ee 3ab8
000003c0: 6e76 113c 841e a9ba cebb 5b3b a22d 1d3b
000003d0: 2153 333b 7a78 433b a671 5a3b c43f 153a
000003e0: b7e8 32bb 1e80 023c ed14 1bbb 270f 1a3c
000003f0: 8ea2 ecbb 823b 1e3c e2cd 54bb e00b 8c3b
-0.005570575 0.0076234476 -0.0016708951 0.0025080168 0.0027952616 0.0034550782 -0.0094514955 0.0096691
-0.009441123 -0.00088505994 0.0006048712 0.0038996837 0.009506968 -0.0042988285 0.009346599 0.008570907
-0.009199097 -3.8741193e-05 -0.005303008 -0.0046618846 -0.00023582563 0.0034523113 0.009415514 0.00824202
-6.330001e-05 0.0019057754 0.008542334 -0.0053781243 0.003932713 3.8155536e-05 0.009409791 0.003714748
-0.0037351334 0.002557997 0.00025186676 0.0063392776 -0.009641354 -0.0096712075 -0.009665215 -0.004893097
0.001355452 0.008300751 0.0025651103 0.003847745 0.009281009 -0.0022216917 0.0010924147 0.008096886
0.0013993209 0.0043508443 0.0080007035 -0.00773022 -0.0023451431 0.0036343709 0.003374011 -0.0035086407
0.0070793126 -0.0011357762 -0.009361277 -0.009447881 7.642028e-05 -0.0017230876 -0.0046424926 -0.0036621555
-0.004971448 0.006637549 -0.00027635487 0.0017856768 0.0014539432 -0.004294854 0.0052831997 0.0029196928
-0.0023749257 0.0006125259 0.009661778 -0.0024913263 0.0042779054 0.004640983 -0.0051337867 -0.0023313519
0.00065510825 -0.0023885197 0.007552649 0.004657246 0.009119594 -0.00829505 0.006867778 -0.0063216304
0.0013686355 0.008654571 0.0085753715 0.002279695 -0.0033226379 0.0025371884 0.0023613058 0.0023047666
0.0039889305 -0.004661197 -0.0005078167 -0.0040986715 -0.0035031312 -0.00478397 0.002525716 0.0023138921
-0.0017261363 0.0050606476 -0.001599026 0.0046570394 -0.0023780365 -0.009647079 0.0017523718 0.0012493172
-0.0023643395 -0.014914979 0.0013102355 -0.0058529098 -0.0033557524 0.00019809169 -0.0023469739 0.0007876116
0.0005016554 0.008293524 -0.0011525833 -0.0020290741 0.0035288455 0.0049497373 0.008080372 -0.0048724385
0.0033771312 -0.0047327005 0.0019401208 -0.0024195125 -0.00056694966 0.003438253 0.0006487921 -0.0024719052
-0.0049539125 -0.014343282 0.0026175505 -0.0034939416 -0.0037583625 -0.0038094942 -0.0031154046 -0.0024724077
-0.0048706327 -0.0028584187 0.0026212146 -0.009443096 -0.00016956286 0.002401779 -0.009657911 0.0009653146
-0.008681357 -0.0032658945 -0.0037069495 -0.0033296712 1.7461509e-05 0.008491454 0.009571637 0.0046299263
-0.001554433 -0.008539094 0.0033369735 0.0038724244 0.0008883832 -0.0037819531 -0.001306142 0.006307009
0.0033295408 0.006042983 -0.0091902735 0.0093798 0.008477032 0.0023535315 0.0034082925 -0.0033814006
-0.003435561 -0.003883814 -0.004890031 0.0022665693 0.0037481855 -0.0085069155 -0.0017034018 -0.008581223
0.005047576 -0.0015898598 -9.441825e-05 -0.008940693 -0.0022750988 0.008382165 -0.0039559654 0.0023671766
0.00071244594 0.0033372492 0.004637451 -0.0010449581 0.0063380264 0.004645905 -0.0077395868 0.016622601
-0.0033451081 -0.007777198 -0.0076773595 -0.0036559845 -0.004536337 0.0007448042 0.00028149883 0.0012739274
0.004526786 -0.0022823042 0.00094899646 -0.0023428593 -0.008139011 -0.010891559 -0.00038264482 0.0019846582
0.0033270968 -0.004348585 0.009267919 -0.005285839 0.0013255607 -0.0012564387 0.0049789813 -0.0034486193
0.0087507265 0.0017954119 0.002789004 0.0023555206 -0.0038377848 -0.003509687 -0.00115797 -0.00021921573
0.0025252968 0.0047599124 0.00953504 0.009625868 0.001689491 -0.004180403 0.008636784 -4.456839e-05
0.0088783335 -0.0012902771 0.0033528688 0.0023983498 0.002736278 0.0029826448 0.00333319 0.0005693401
-0.0027299353 0.007965116 -0.0023663596 0.009403027 -0.0072215265 0.009657742 -0.0032471349 0.0042738765
